{
  "storage" : "model.espresso.weights",
  "properties" : {

  },
  "format_version" : 200,
  "layers" : [
    {
      "pad_r" : 0,
      "fused_relu" : 0,
      "fused_tanh" : 0,
      "pad_fill_mode" : 0,
      "pad_b" : 0,
      "pad_l" : 0,
      "top" : "batch_normalization_1_output",
      "blob_weights" : 3,
      "K" : 3,
      "blob_biases" : 1,
      "name" : "image_array",
      "has_batch_norm" : 0,
      "type" : "convolution",
      "n_groups" : 1,
      "pad_t" : 0,
      "has_biases" : 1,
      "C" : 16,
      "bottom" : "image",
      "weights" : {

      },
      "pad_mode" : 1,
      "Nx" : 7,
      "pad_value" : 0,
      "Ny" : 7,
      "n_parallel" : 1
    },
    {
      "pad_r" : 0,
      "fused_relu" : 1,
      "fused_tanh" : 0,
      "pad_fill_mode" : 0,
      "pad_b" : 0,
      "pad_l" : 0,
      "top" : "activation_1_output",
      "blob_weights" : 7,
      "K" : 16,
      "blob_biases" : 5,
      "name" : "conv2d_1",
      "has_batch_norm" : 0,
      "type" : "convolution",
      "n_groups" : 1,
      "pad_t" : 0,
      "has_biases" : 1,
      "C" : 16,
      "bottom" : "batch_normalization_1_output",
      "weights" : {

      },
      "pad_mode" : 1,
      "Nx" : 7,
      "pad_value" : 0,
      "Ny" : 7,
      "n_parallel" : 1
    },
    {
      "pad_value" : 0,
      "average_count_exclude_padding" : 1,
      "top_shape_style" : 0,
      "avg_or_max" : 0,
      "stride_x" : 2,
      "pad_mode" : 1,
      "stride_y" : 2,
      "pad_t" : 0,
      "weights" : {

      },
      "size_y" : 2,
      "type" : "pool",
      "pad_r" : 0,
      "pad_b" : 0,
      "size_x" : 2,
      "pad_fill_mode" : 0,
      "bottom" : "activation_1_output",
      "pad_l" : 0,
      "name" : "average_pooling2d_1",
      "top" : "average_pooling2d_1_output"
    },
    {
      "pad_r" : 0,
      "fused_relu" : 0,
      "fused_tanh" : 0,
      "pad_fill_mode" : 0,
      "pad_b" : 0,
      "pad_l" : 0,
      "top" : "batch_normalization_3_output",
      "blob_weights" : 11,
      "K" : 16,
      "blob_biases" : 9,
      "name" : "conv2d_2",
      "has_batch_norm" : 0,
      "type" : "convolution",
      "n_groups" : 1,
      "pad_t" : 0,
      "has_biases" : 1,
      "C" : 32,
      "bottom" : "average_pooling2d_1_output",
      "weights" : {

      },
      "pad_mode" : 1,
      "Nx" : 5,
      "pad_value" : 0,
      "Ny" : 5,
      "n_parallel" : 1
    },
    {
      "pad_r" : 0,
      "fused_relu" : 1,
      "fused_tanh" : 0,
      "pad_fill_mode" : 0,
      "pad_b" : 0,
      "pad_l" : 0,
      "top" : "activation_2_output",
      "blob_weights" : 15,
      "K" : 32,
      "blob_biases" : 13,
      "name" : "conv2d_3",
      "has_batch_norm" : 0,
      "type" : "convolution",
      "n_groups" : 1,
      "pad_t" : 0,
      "has_biases" : 1,
      "C" : 32,
      "bottom" : "batch_normalization_3_output",
      "weights" : {

      },
      "pad_mode" : 1,
      "Nx" : 5,
      "pad_value" : 0,
      "Ny" : 5,
      "n_parallel" : 1
    },
    {
      "pad_value" : 0,
      "average_count_exclude_padding" : 1,
      "top_shape_style" : 0,
      "avg_or_max" : 0,
      "stride_x" : 2,
      "pad_mode" : 1,
      "stride_y" : 2,
      "pad_t" : 0,
      "weights" : {

      },
      "size_y" : 2,
      "type" : "pool",
      "pad_r" : 0,
      "pad_b" : 0,
      "size_x" : 2,
      "pad_fill_mode" : 0,
      "bottom" : "activation_2_output",
      "pad_l" : 0,
      "name" : "average_pooling2d_2",
      "top" : "average_pooling2d_2_output"
    },
    {
      "pad_r" : 0,
      "fused_relu" : 0,
      "fused_tanh" : 0,
      "pad_fill_mode" : 0,
      "pad_b" : 0,
      "pad_l" : 0,
      "top" : "batch_normalization_5_output",
      "blob_weights" : 19,
      "K" : 32,
      "blob_biases" : 17,
      "name" : "conv2d_4",
      "has_batch_norm" : 0,
      "type" : "convolution",
      "n_groups" : 1,
      "pad_t" : 0,
      "has_biases" : 1,
      "C" : 64,
      "bottom" : "average_pooling2d_2_output",
      "weights" : {

      },
      "pad_mode" : 1,
      "Nx" : 3,
      "pad_value" : 0,
      "Ny" : 3,
      "n_parallel" : 1
    },
    {
      "pad_r" : 0,
      "fused_relu" : 1,
      "fused_tanh" : 0,
      "pad_fill_mode" : 0,
      "pad_b" : 0,
      "pad_l" : 0,
      "top" : "activation_3_output",
      "blob_weights" : 23,
      "K" : 64,
      "blob_biases" : 21,
      "name" : "conv2d_5",
      "has_batch_norm" : 0,
      "type" : "convolution",
      "n_groups" : 1,
      "pad_t" : 0,
      "has_biases" : 1,
      "C" : 64,
      "bottom" : "batch_normalization_5_output",
      "weights" : {

      },
      "pad_mode" : 1,
      "Nx" : 3,
      "pad_value" : 0,
      "Ny" : 3,
      "n_parallel" : 1
    },
    {
      "pad_value" : 0,
      "average_count_exclude_padding" : 1,
      "top_shape_style" : 0,
      "avg_or_max" : 0,
      "stride_x" : 2,
      "pad_mode" : 1,
      "stride_y" : 2,
      "pad_t" : 0,
      "weights" : {

      },
      "size_y" : 2,
      "type" : "pool",
      "pad_r" : 0,
      "pad_b" : 0,
      "size_x" : 2,
      "pad_fill_mode" : 0,
      "bottom" : "activation_3_output",
      "pad_l" : 0,
      "name" : "average_pooling2d_3",
      "top" : "average_pooling2d_3_output"
    },
    {
      "pad_r" : 0,
      "fused_relu" : 0,
      "fused_tanh" : 0,
      "pad_fill_mode" : 0,
      "pad_b" : 0,
      "pad_l" : 0,
      "top" : "batch_normalization_7_output",
      "blob_weights" : 27,
      "K" : 64,
      "blob_biases" : 25,
      "name" : "conv2d_6",
      "has_batch_norm" : 0,
      "type" : "convolution",
      "n_groups" : 1,
      "pad_t" : 0,
      "has_biases" : 1,
      "C" : 128,
      "bottom" : "average_pooling2d_3_output",
      "weights" : {

      },
      "pad_mode" : 1,
      "Nx" : 3,
      "pad_value" : 0,
      "Ny" : 3,
      "n_parallel" : 1
    },
    {
      "pad_r" : 0,
      "fused_relu" : 1,
      "fused_tanh" : 0,
      "pad_fill_mode" : 0,
      "pad_b" : 0,
      "pad_l" : 0,
      "top" : "activation_4_output",
      "blob_weights" : 31,
      "K" : 128,
      "blob_biases" : 29,
      "name" : "conv2d_7",
      "has_batch_norm" : 0,
      "type" : "convolution",
      "n_groups" : 1,
      "pad_t" : 0,
      "has_biases" : 1,
      "C" : 128,
      "bottom" : "batch_normalization_7_output",
      "weights" : {

      },
      "pad_mode" : 1,
      "Nx" : 3,
      "pad_value" : 0,
      "Ny" : 3,
      "n_parallel" : 1
    },
    {
      "pad_value" : 0,
      "average_count_exclude_padding" : 1,
      "top_shape_style" : 0,
      "avg_or_max" : 0,
      "stride_x" : 2,
      "pad_mode" : 1,
      "stride_y" : 2,
      "pad_t" : 0,
      "weights" : {

      },
      "size_y" : 2,
      "type" : "pool",
      "pad_r" : 0,
      "pad_b" : 0,
      "size_x" : 2,
      "pad_fill_mode" : 0,
      "bottom" : "activation_4_output",
      "pad_l" : 0,
      "name" : "average_pooling2d_4",
      "top" : "average_pooling2d_4_output"
    },
    {
      "pad_r" : 0,
      "fused_relu" : 0,
      "fused_tanh" : 0,
      "pad_fill_mode" : 0,
      "pad_b" : 0,
      "pad_l" : 0,
      "top" : "batch_normalization_9_output",
      "blob_weights" : 35,
      "K" : 128,
      "blob_biases" : 33,
      "name" : "conv2d_8",
      "has_batch_norm" : 0,
      "type" : "convolution",
      "n_groups" : 1,
      "pad_t" : 0,
      "has_biases" : 1,
      "C" : 256,
      "bottom" : "average_pooling2d_4_output",
      "weights" : {

      },
      "pad_mode" : 1,
      "Nx" : 3,
      "pad_value" : 0,
      "Ny" : 3,
      "n_parallel" : 1
    },
    {
      "pad_r" : 0,
      "fused_relu" : 0,
      "fused_tanh" : 0,
      "pad_fill_mode" : 0,
      "pad_b" : 0,
      "pad_l" : 0,
      "top" : "conv2d_9_output",
      "blob_weights" : 39,
      "K" : 256,
      "blob_biases" : 37,
      "name" : "conv2d_9",
      "has_batch_norm" : 0,
      "type" : "convolution",
      "n_groups" : 1,
      "pad_t" : 0,
      "has_biases" : 1,
      "C" : 2,
      "bottom" : "batch_normalization_9_output",
      "weights" : {

      },
      "pad_mode" : 1,
      "Nx" : 3,
      "pad_value" : 0,
      "Ny" : 3,
      "n_parallel" : 1
    },
    {
      "pad_r" : 0,
      "pad_fill_mode" : 0,
      "pad_b" : 0,
      "pad_l" : 0,
      "top" : "global_average_pooling2d_1_output",
      "size_x" : 3,
      "is_global" : 1,
      "top_shape_style" : 0,
      "stride_x" : 1,
      "avg_or_max" : 0,
      "average_count_exclude_padding" : 1,
      "type" : "pool",
      "name" : "global_average_pooling2d_1",
      "pad_t" : 0,
      "stride_y" : 1,
      "bottom" : "conv2d_9_output",
      "weights" : {

      },
      "pad_mode" : 2,
      "size_y" : 3,
      "pad_value" : 0
    },
    {
      "C" : 2,
      "weights" : {

      },
      "top" : "output1",
      "type" : "softmax",
      "name" : "predictions",
      "bottom" : "global_average_pooling2d_1_output"
    }
  ]
}